saved_models/gru_turbo_encoder.pth (torch, 50842 bytes, 116 tensors)

enc_rnn_1.layers.0.strand1_proj.weight f4 [3, 1]
0	0xbf1f1551	-0.621419
1	0x3ebc7541	0.36808208
2	0x3e86a277	0.26295826

enc_rnn_1.layers.0.strand1_proj.bias f4 [3]
0	0xba9947ee	-0.001169441
1	0x3a3b9ce1	0.00071568607
2	0xbb52896e	-0.0032125372

enc_rnn_1.layers.0.strand1_ln1.weight f4 [3]
0	0x3f7fc0a3	0.99903315
1	0x3f7ca2f9	0.98686177
2	0x3f80fe5e	1.0077627

enc_rnn_1.layers.0.strand1_ln1.bias f4 [3]
0	0xba80db79	-0.0009831033
1	0x3a932dca	0.0011228856
2	0x39bdc6c7	0.0003619699

enc_rnn_1.layers.0.strand2_proj.weight f4 [3, 1]
0	0xbe843e63	-0.25828847
1	0x3f2f56fa	0.6849209
2	0x3f5f960e	0.8733834

enc_rnn_1.layers.0.strand2_proj.bias f4 [3]
0	0x3b045c71	0.00201967
1	0x3a18bbf5	0.00058263476
2	0xbacca738	-0.00156138

enc_rnn_1.layers.0.strand2_ln1.weight f4 [3]
0	0x3f7ace84	0.9797137
1	0x3f7dfad1	0.9921084
2	0x3f868e54	1.0512185

enc_rnn_1.layers.0.strand2_ln1.bias f4 [3]
0	0xbb4c9fee	-0.0031223255
1	0xbb3656f6	-0.002782283
2	0xbac68109	-0.0015144657

enc_rnn_1.layers.0.conv1d.weight f4 [3, 3, 3]
0	0xbe901e13	-0.28147945
1	0xbea5c12e	-0.32373947
2	0xbf4a620a	-0.79055846
3	0xbeea568a	-0.4576915
4	0x3e55b9b8	0.20871627
5	0xbdd74073	-0.105103396
6	0xbf167a14	-0.58780026
7	0x3cf1b787	0.029506458
8	0xbf0e1665	-0.5550292
9	0xbf30028e	-0.687539
10	0xbed7dd81	-0.42161182
11	0xbf36c892	-0.71399796
12	0xbf052632	-0.52011406
13	0x3f4f7606	0.81039464
14	0x3e1ebfc4	0.1550284
15	0x3e80630e	0.25075573
16	0xbf43a4a2	-0.76423085
17	0xbf08dc00	-0.53460693
18	0xbe8936f9	-0.26799753
19	0x3e1d4f49	0.15362276
20	0xbf372227	-0.7153649
21	0xbeb4525c	-0.35219085
22	0xbefa3b7b	-0.48873505
23	0x3a5e0c3b	0.00084704504
24	0xbe9d8e61	-0.3077269
25	0xbd7e522f	-0.062090095
26	0xbf0dabf8	-0.5534053

enc_rnn_1.layers.0.conv1d.bias f4 [3]
0	0x3a130de9	0.0005609678
1	0x3a442420	0.00074821897
2	0xbac32d30	-0.0014890786

enc_rnn_1.layers.0.conv_ln.weight f4 [3]
0	0x3f805921	1.00272
1	0x3f7fd740	0.9993782
2	0x3f7eb75a	0.9949852

enc_rnn_1.layers.0.conv_ln.bias f4 [3]
0	0x3cff41a2	0.031159226
1	0x3a9830eb	0.0011611258
2	0x3ab2c915	0.0013640249

enc_rnn_1.layers.0.min_gru.linear_z.weight f4 [3, 3]
0	0xbf1879ba	-0.5956074
1	0xbf37bbcd	-0.71770936
2	0xbe9c2891	-0.304997
3	0xbf48b12c	-0.7839534
4	0x3f56c248	0.838902
5	0xbe4be29e	-0.19910666
6	0x3f5c4efb	0.86058015
7	0x3e9d7e3c	0.30760372
8	0xbf58719d	-0.8454836

enc_rnn_1.layers.0.min_gru.linear_z.bias f4 [3]
0	0xbd87e6a5	-0.06635789
1	0xb9d2cdf6	-0.00040207774
2	0xbb39f744	-0.0028376142

enc_rnn_1.layers.0.min_gru.linear_h.weight f4 [3, 3]
0	0x3f3d2c55	0.7389577
1	0xbe501f9b	-0.20324557
2	0xbed15726	-0.408868
3	0xbf51d3a0	-0.8196354
4	0xbf82133d	-1.0162121
5	0x3e9240a7	0.2856495
6	0xbe5303bf	-0.20606898
7	0x3ec24c60	0.37948895
8	0xbf4711a5	-0.777613

enc_rnn_1.layers.0.min_gru.linear_h.bias f4 [3]
0	0x3d294890	0.041328967
1	0xbbc9efe8	-0.0061626323
2	0xbbb40425	-0.005493658

enc_rnn_1.layers.0.gru_ln.weight f4 [3]
0	0x3f7969f1	0.9742728
1	0x3f7d729e	0.99003017
2	0x3f873060	1.0561638

enc_rnn_1.layers.0.gru_ln.bias f4 [3]
0	0x3d65f4af	0.05614155
1	0x3c40f1d4	0.011776406
2	0x3d3b8ece	0.045790486

enc_rnn_1.layers.0.down_projection.weight f4 [1, 3]
0	0xbf5d4a91	-0.86441904
1	0xbf2506e2	-0.6446363
2	0x3f96cb0e	1.1780717

enc_rnn_1.layers.1.strand1_proj.weight f4 [3, 1]
0	0xbf800571	-1.000166
1	0x3f65246a	0.8950869
2	0x3f19fb0e	0.60148704

enc_rnn_1.layers.1.strand1_proj.bias f4 [3]
0	0xbb9ae317	-0.0047267783
1	0xbc3b3bab	-0.0114278
2	0x3c78a611	0.015176312

enc_rnn_1.layers.1.strand1_ln1.weight f4 [3]
0	0x3f758a56	0.9591421
1	0x3f8208f3	1.0158981
2	0x3f85e2d4	1.0459847

enc_rnn_1.layers.1.strand1_ln1.bias f4 [3]
0	0x3d0de083	0.03463794
1	0x3d187edf	0.03723037
2	0x3d187f8b	0.03723101

enc_rnn_1.layers.1.strand2_proj.weight f4 [3, 1]
0	0x3f8847ae	1.0646875
1	0x3f1999ea	0.6000048
2	0x3eb470e2	0.35242373

enc_rnn_1.layers.1.strand2_proj.bias f4 [3]
0	0xbb115012	-0.002217297
1	0x3819b2e3	3.6644644e-05
2	0x3a435163	0.0007450787

enc_rnn_1.layers.1.strand2_ln1.weight f4 [3]
0	0x3f8337d7	1.0251416
1	0x3f697848	0.9119916
2	0x3f700c91	0.93769175

enc_rnn_1.layers.1.strand2_ln1.bias f4 [3]
0	0x3cd7aebd	0.026328439
1	0xbd84f7f3	-0.06492605
2	0xbd5e1802	-0.054222114

enc_rnn_1.layers.1.conv1d.weight f4 [3, 3, 3]
0	0xbf3b040f	-0.7305307
1	0x3eaa6f7c	0.3328818
2	0xbebaf687	-0.3651621
3	0xbe4a2356	-0.19740042
4	0xbeef6f2f	-0.46764514
5	0xbe3d08af	-0.18460344
6	0xbf1d2b20	-0.6139393
7	0xbf0ce388	-0.55034685
8	0x3e6c5d73	0.23082523
9	0xbe94fc8e	-0.29098934
10	0x3f04b934	0.518451
11	0xbe980e15	-0.29698244
12	0xbf0bedcd	-0.5465973
13	0xbe247ba0	-0.16062784
14	0xbeb75ba8	-0.35812116
15	0xbe47ad4a	-0.19499698
16	0xbf45c132	-0.7724792
17	0x3efdcc97	0.49570152
18	0xbf15a975	-0.58461696
19	0x3ecd3297	0.4007766
20	0x3eab9a3d	0.33516112
21	0x3f19adf5	0.6003106
22	0xbf1dc53c	-0.6162908
23	0x3f1f36dd	0.6219309
24	0xbeb6b3ac	-0.35683954
25	0x3ea7fe2e	0.3281111
26	0x3f4deb6f	0.8043737

enc_rnn_1.layers.1.conv1d.bias f4 [3]
0	0xbd16a663	-0.036779772
1	0x3d17ed64	0.037091628
2	0x3d0c2c0d	0.034221698

enc_rnn_1.layers.1.conv_ln.weight f4 [3]
0	0x3f7d6ac7	0.98991054
1	0x3f84caaf	1.0374354
2	0x3f7e8ca1	0.9943333

enc_rnn_1.layers.1.conv_ln.bias f4 [3]
0	0xbd178ddc	-0.037000522
1	0x3d2931fe	0.041307442
2	0xbca6584c	-0.020305775

enc_rnn_1.layers.1.min_gru.linear_z.weight f4 [3, 3]
0	0xbe28d49d	-0.16487356
1	0x3c9e1989	0.019299285
2	0xbe827cb6	-0.25485772
3	0xbf5a9073	-0.8537666
4	0x3f05a494	0.5220425
5	0xbf84c8e2	-1.0373805
6	0x3f187dd5	0.59567004
7	0x3f48e389	0.7847219
8	0x3f67ce06	0.9054874

enc_rnn_1.layers.1.min_gru.linear_z.bias f4 [3]
0	0xbc9616be	-0.018321391
1	0xbd26373b	-0.040580016
2	0xbcfa998b	-0.030590793

enc_rnn_1.layers.1.min_gru.linear_h.weight f4 [3, 3]
0	0xbe85dbce	-0.2614426
1	0xbf41a736	-0.7564577
2	0x3e374d80	0.17900658
3	0x3f0b6552	0.5445148
4	0xbf84c95d	-1.0373951
5	0xbe89fc2f	-0.26950213
6	0xbf22632a	-0.6343256
7	0xbd878eee	-0.066190585
8	0xbed7225b	-0.420184

enc_rnn_1.layers.1.min_gru.linear_h.bias f4 [3]
0	0xbd18ed5f	-0.03733575
1	0xbd219a0b	-0.039453547
2	0x3d2513f6	0.04030224

enc_rnn_1.layers.1.gru_ln.weight f4 [3]
0	0x3f89a595	1.0753657
1	0x3f6c0a3b	0.9220311
2	0x3f710021	0.9414082

enc_rnn_1.layers.1.gru_ln.bias f4 [3]
0	0x3db551a2	0.08853461
1	0x3d9a5abe	0.07536839
2	0x3d792474	0.06082578

enc_rnn_1.layers.1.down_projection.weight f4 [1, 3]
0	0x3d1bf7be	0.038078062
1	0xbf5b3c73	-0.85639113
2	0xbf7e0746	-0.9922985

enc_rnn_1.layers.2.strand1_proj.weight f4 [3, 1]
0	0xbf455839	-0.7708774
1	0xbdffccf8	-0.124902666
2	0xbf565ff9	-0.8374019

enc_rnn_1.layers.2.strand1_proj.bias f4 [3]
0	0xbcd0a663	-0.025469964
1	0xbc3e1ea9	-0.01160399
2	0x3cd430bd	0.025902146

enc_rnn_1.layers.2.strand1_ln1.weight f4 [3]
0	0x3f8984c5	1.0743643
1	0x3f721bc3	0.9457361
2	0x3f823a44	1.0174031

enc_rnn_1.layers.2.strand1_ln1.bias f4 [3]
0	0x3d87f938	0.066393316
1	0x3d2fc1cf	0.04290944
2	0x3d1fa20c	0.0389729

enc_rnn_1.layers.2.strand2_proj.weight f4 [3, 1]
0	0xbef38d0b	-0.47568545
1	0x3e9d08c1	0.3067074
2	0x3f093dd3	0.5360996

enc_rnn_1.layers.2.strand2_proj.bias f4 [3]
0	0x3cecf297	0.02892427
1	0x3d78c648	0.06073597
2	0xbd8d82f6	-0.069097444

enc_rnn_1.layers.2.strand2_ln1.weight f4 [3]
0	0x3f778d1f	0.9669971
1	0x3f65d167	0.8977265
2	0x3f75c603	0.96005267

enc_rnn_1.layers.2.strand2_ln1.bias f4 [3]
0	0xbcef7351	-0.029229792
1	0xbd862300	-0.065496445
2	0xbd55aff1	-0.052169744

enc_rnn_1.layers.2.conv1d.weight f4 [3, 3, 3]
0	0xbf1adcb5	-0.6049302
1	0x3ebba5c2	0.366499
2	0x3f339f4d	0.7016495
3	0x3d3e44f9	0.046452496
4	0x3f307465	0.68927604
5	0xbf35dc1c	-0.71038985
6	0xbeb680b6	-0.35645074
7	0x3f06ad3b	0.5260808
8	0xbe1f0024	-0.15527397
9	0xbdf3ab61	-0.11897922
10	0xbed67839	-0.41888598
11	0x3f0b743a	0.5447422
12	0x3eb85114	0.35999358
13	0x3ea53ecd	0.32274476
14	0xbee4b93d	-0.44672576
15	0xbf1eb6f4	-0.61997914
16	0x3d04d649	0.03243092
17	0x3e6ce355	0.23133595
18	0xbed481d3	-0.41505298
19	0xbe4f7629	-0.20259918
20	0x3f127026	0.57202375
21	0x3daaed71	0.083460696
22	0x3d01857b	0.031621438
23	0xbe557acf	-0.20847629
24	0xbf3e47f2	-0.7432853
25	0xbf45ac61	-0.77216154
26	0xbec917e4	-0.3927604

enc_rnn_1.layers.2.conv1d.bias f4 [3]
0	0x3d17e3fb	0.037082653
1	0xbc724391	-0.014786617
2	0xbd1dfe9f	-0.038572904

enc_rnn_1.layers.2.conv_ln.weight f4 [3]
0	0x3f828629	1.0197192
1	0x3f71c4d3	0.94440955
2	0x3f70d0a9	0.9406839

enc_rnn_1.layers.2.conv_ln.bias f4 [3]
0	0x3ca1172a	0.019664366
1	0xbd0dc92b	-0.034615677
2	0xbc2a073e	-0.010377703

enc_rnn_1.layers.2.min_gru.linear_z.weight f4 [3, 3]
0	0xbee1df32	-0.44115597
1	0x3e9722d8	0.2951877
2	0xbe9484ee	-0.29007667
3	0xbed954e7	-0.42447588
4	0x3f6c3ebd	0.9228323
5	0x3ed1cf43	0.4097844
6	0x3f0d97bd	0.5530966
7	0xbf08009b	-0.53125924
8	0xbedbb621	-0.4291239

enc_rnn_1.layers.2.min_gru.linear_z.bias f4 [3]
0	0x3dc52a4b	0.09627207
1	0x3d2c7c37	0.042110648
2	0xbe0a2dd0	-0.13494039

enc_rnn_1.layers.2.min_gru.linear_h.weight f4 [3, 3]
0	0x3ecbef0e	0.39830822
1	0xbf25d949	-0.64784676
2	0xbf2c08bd	-0.67200834
3	0xbde439d3	-0.111438416
4	0xbeabc808	-0.3355105
5	0xbf31625a	-0.692907
6	0x3f1c14d3	0.60969275
7	0x3f3d7c48	0.74017763
8	0x3e11253c	0.1417436

enc_rnn_1.layers.2.min_gru.linear_h.bias f4 [3]
0	0x3cc7b67f	0.024379013
1	0xbcc81781	-0.02442527
2	0xbc9f11f5	-0.019417742

enc_rnn_1.layers.2.gru_ln.weight f4 [3]
0	0x3f725459	0.94659954
1	0x3f65dc4f	0.8978929
2	0x3f75c740	0.96007156

enc_rnn_1.layers.2.gru_ln.bias f4 [3]
0	0x3d57aa60	0.052652717
1	0x3dd8a1dc	0.10577747
2	0xbd0c2ccc	-0.03422241

enc_rnn_1.layers.2.down_projection.weight f4 [1, 3]
0	0x3f766b44	0.96257424
1	0xbf839280	-1.0279083
2	0x3f4787ff	0.7794189

enc_rnn_1.final_down_projection.weight f4 [1, 3]
0	0xbdcddfb4	-0.100524336
1	0xbf08e79a	-0.53478396
2	0xbe575722	-0.21029332

enc_rnn_2.layers.0.strand1_proj.weight f4 [3, 1]
0	0x3f69d63f	0.9134254
1	0xbd14aae4	-0.036295786
2	0xbe1622d2	-0.1466172

enc_rnn_2.layers.0.strand1_proj.bias f4 [3]
0	0x3a1726e2	0.0005765987
1	0x3bf44860	0.007454917
2	0xbba11a78	-0.0049164854

enc_rnn_2.layers.0.strand1_ln1.weight f4 [3]
0	0x3f630336	0.88676775
1	0x3f85d04f	1.0454196
2	0x3f8a544f	1.0806979

enc_rnn_2.layers.0.strand1_ln1.bias f4 [3]
0	0xbbd96a97	-0.006635021
1	0xb9201cee	-0.00015269566
2	0xbd217766	-0.039420508

enc_rnn_2.layers.0.strand2_proj.weight f4 [3, 1]
0	0x3f52a452	0.8228198
1	0x3ce23ac2	0.027615909
2	0x3f348aca	0.70524275

enc_rnn_2.layers.0.strand2_proj.bias f4 [3]
0	0xbab22e34	-0.0013594092
1	0xbaa02d8d	-0.0012220606
2	0x3aadd520	0.0013262369

enc_rnn_2.layers.0.strand2_ln1.weight f4 [3]
0	0x3f87d8af	1.0613002
1	0x3f85f356	1.0464885
2	0x3f769ffc	0.96337867

enc_rnn_2.layers.0.strand2_ln1.bias f4 [3]
0	0xba69b718	-0.0008915528
1	0xbaa8f757	-0.0012891096
2	0x3a837b8f	0.001003133

enc_rnn_2.layers.0.conv1d.weight f4 [3, 3, 3]
0	0x3de111ef	0.10989749
1	0x3e7bcdc9	0.2459022
2	0x3e5f8b2b	0.21830432
3	0x3e7203db	0.23634283
4	0xbeee7bba	-0.4657877
5	0xbe72c635	-0.23708422
6	0x3f57018d	0.8398674
7	0x3ef5444e	0.47903675
8	0xbdd04cd2	-0.10170902
9	0xbf300d60	-0.6877041
10	0x3d1eb2b5	0.038744647
11	0xbf202684	-0.6255877
12	0x3f2dab8f	0.678399
13	0xbef6b37d	-0.48183814
14	0xbcb5edc4	-0.022208102
15	0xbe576e58	-0.21038187
16	0x3e3e806c	0.18603677
17	0x3f526336	0.82182634
18	0x3dd34666	0.10316162
19	0x3eb58d2e	0.35459274
20	0x3f0526e9	0.520125
21	0x3f1cf1f3	0.61306685
22	0xbe1bdfd2	-0.152221
23	0xbd99acff	-0.075036995
24	0x3eb9e901	0.3631058
25	0xbe107d49	-0.14110292
26	0x3eea2d52	0.45737702

enc_rnn_2.layers.0.conv1d.bias f4 [3]
0	0x3d5a3d91	0.05328137
1	0xbc94c9f9	-0.018162714
2	0xbd012af4	-0.031535104

enc_rnn_2.layers.0.conv_ln.weight f4 [3]
0	0x3f84e542	1.0382464
1	0x3f8093f7	1.0045155
2	0x3f76070d	0.9610451

enc_rnn_2.layers.0.conv_ln.bias f4 [3]
0	0x3d5bd69d	0.053671468
1	0xbdf03b10	-0.11730015
2	0xbd2da762	-0.042395957

enc_rnn_2.layers.0.min_gru.linear_z.weight f4 [3, 3]
0	0xbe9223c4	-0.28542912
1	0xbf21b8d2	-0.6317264
2	0x3eb86218	0.3601234
3	0x3bf3e0d0	0.007442571
4	0x3f05cb8a	0.522637
5	0x3f7369b4	0.95083165
6	0x3f4ea488	0.80719805
7	0x3f647a1f	0.8924884
8	0x3dbca0c4	0.09210351

enc_rnn_2.layers.0.min_gru.linear_z.bias f4 [3]
0	0xbd613b2d	-0.054988075
1	0xbd30988a	-0.043114223
2	0x3d317732	0.043326564

enc_rnn_2.layers.0.min_gru.linear_h.weight f4 [3, 3]
0	0xbf477e59	-0.77927166
1	0xbf3dcbbc	-0.74139
2	0xbf143841	-0.57898337
3	0xbf55043b	-0.8320958
4	0xbf04e1dd	-0.5190714
5	0xbf66cad3	-0.90153235
6	0xbf7f7d75	-0.9980081
7	0xbf124b50	-0.5714617
8	0xbf805fb9	-1.0029212

enc_rnn_2.layers.0.min_gru.linear_h.bias f4 [3]
0	0x3d3ed12b	0.046586197
1	0x3c9cc2e0	0.019135892
2	0xbcb5b89a	-0.022182751

enc_rnn_2.layers.0.gru_ln.weight f4 [3]
0	0x3f87bd78	1.0604696
1	0x3f767056	0.9626516
2	0x3f76a6e5	0.9634841

enc_rnn_2.layers.0.gru_ln.bias f4 [3]
0	0x3d80dd53	0.06292214
1	0x3d3c31bb	0.045945864
2	0x3cf729cb	0.030171296

enc_rnn_2.layers.0.down_projection.weight f4 [1, 3]
0	0x3f726a2f	0.94693273
1	0xbf83824f	-1.0274142
2	0x3edf1179	0.43568018

enc_rnn_2.layers.1.strand1_proj.weight f4 [3, 1]
0	0xbf69856c	-0.9121921
1	0x3e9088e5	0.28229442
2	0xbf991262	-1.1958735

enc_rnn_2.layers.1.strand1_proj.bias f4 [3]
0	0xbab3702b	-0.0013690045
1	0x3a9c8e2b	0.0011944225
2	0x3ab91355	0.0014120141

enc_rnn_2.layers.1.strand1_ln1.weight f4 [3]
0	0x3f807907	1.0036935
1	0x3f80592e	1.0027215
2	0x3f7e21ff	0.99270624

enc_rnn_2.layers.1.strand1_ln1.bias f4 [3]
0	0xbb57115f	-0.003281675
1	0x3be711c0	0.0070516765
2	0x3b6185e1	0.0034412073

enc_rnn_2.layers.1.strand2_proj.weight f4 [3, 1]
0	0x3f3490db	0.7053353
1	0x3ec0c81f	0.3765268
2	0x3e132c5b	0.14372389

enc_rnn_2.layers.1.strand2_proj.bias f4 [3]
0	0xbac41bd2	-0.0014961904
1	0x3b5cb5b2	0.0033677635
2	0x3a76341b	0.00093919196

enc_rnn_2.layers.1.strand2_ln1.weight f4 [3]
0	0x3f88a3d3	1.0674995
1	0x3f82222b	1.0166677
2	0x3f6ecd2b	0.9328181

enc_rnn_2.layers.1.strand2_ln1.bias f4 [3]
0	0x3d0e8195	0.034791548
1	0x3bd8ecd3	0.0066200285
2	0xbd16cd40	-0.036816835

enc_rnn_2.layers.1.conv1d.weight f4 [3, 3, 3]
0	0xbf227612	-0.6346141
1	0xbdd81511	-0.10550893
2	0x3ebb4eb3	0.3658348
3	0x3f4d2979	0.8014141
4	0x3ecd8b4e	0.40145344
5	0xbf18c396	-0.5967344
6	0x3f22f0c5	0.63648635
7	0xbe2c79d0	-0.16843343
8	0xbe2dfbd2	-0.16990593
9	0xbf3e614c	-0.74367213
10	0xbe0a1776	-0.13485512
11	0x3f0ee9ff	0.558258
12	0x3deefd67	0.116694264
13	0xbeefabd4	-0.46810782
14	0x3e897bb9	0.26852205
15	0xbe875b52	-0.2643686
16	0x3f3ccd9b	0.7375123
17	0xbf39850f	-0.72468656
18	0xbe89a3ae	-0.2688269
19	0xbf4d65e6	-0.8023361
20	0xbea55e05	-0.32298294
21	0x3e892c82	0.2679177
22	0x3f4c9df1	0.799285
23	0x3e0e21ca	0.13880077
24	0x3f49bd11	0.7880412
25	0x3e1469d2	0.14493492
26	0x3eeffbe2	0.4687186

enc_rnn_2.layers.1.conv1d.bias f4 [3]
0	0xbabee70d	-0.0014564708
1	0xbbba8e3b	-0.0056932247
2	0x3b322e79	0.0027188344

enc_rnn_2.layers.1.conv_ln.weight f4 [3]
0	0x3f78dbca	0.9721037
1	0x3f7da0e2	0.9907361
2	0x3f820fdf	1.0161093

enc_rnn_2.layers.1.conv_ln.bias f4 [3]
0	0xbbd49c4c	-0.0064883586
1	0xbbed6bf4	-0.007245535
2	0x3c445b1e	0.011984615

enc_rnn_2.layers.1.min_gru.linear_z.weight f4 [3, 3]
0	0x3f49f58e	0.7889031
1	0x3f543eb4	0.8290818
2	0xbf0f62ab	-0.5600993
3	0x3f6a47eb	0.9151599
4	0x3f101299	0.5627838
5	0xbee9171a	-0.45525438
6	0xbef206fe	-0.4727096
7	0xbf5430fa	-0.8288723
8	0x3e7e40fe	0.2482948

enc_rnn_2.layers.1.min_gru.linear_z.bias f4 [3]
0	0xbca307b8	-0.019901142
1	0xbd58d11d	-0.0529338
2	0x3c1eba8b	0.00968803

enc_rnn_2.layers.1.min_gru.linear_h.weight f4 [3, 3]
0	0xbf4e94a6	-0.8069557
1	0x3ed9db18	0.42549968
2	0x3ea27f79	0.3173788
3	0xbf5022c9	-0.8130308
4	0x3e5ebd45	0.21751888
5	0xbca65e0f	-0.020308523
6	0x3ee74ed1	0.4517732
7	0x3f138aac	0.5763347
8	0xbf8170fa	-1.0112603

enc_rnn_2.layers.1.min_gru.linear_h.bias f4 [3]
0	0x3bdbf0db	0.006712062
1	0xbd534285	-0.05157711
2	0xba89ea09	-0.0010522018

enc_rnn_2.layers.1.gru_ln.weight f4 [3]
0	0x3f86f94e	1.0544832
1	0x3f81ea95	1.0149714
2	0x3f6f0ef2	0.9338218

enc_rnn_2.layers.1.gru_ln.bias f4 [3]
0	0x3d7d0c4a	0.061779298
1	0xbcd0ee8e	-0.025504377
2	0xbd0af089	-0.0339208

enc_rnn_2.layers.1.down_projection.weight f4 [1, 3]
0	0x3f14e4d9	0.58161694
1	0xbc6976ae	-0.014249487
2	0x3f1c913b	0.61159104

enc_rnn_2.layers.2.strand1_proj.weight f4 [3, 1]
0	0xbf885b43	-1.0652851
1	0x3f3a5152	0.72780335
2	0xbecf876b	-0.40533003

enc_rnn_2.layers.2.strand1_proj.bias f4 [3]
0	0xbc2b5763	-0.010457846
1	0x3c419e7d	0.011817572
2	0x3b8dcaa3	0.0043271347

enc_rnn_2.layers.2.strand1_ln1.weight f4 [3]
0	0x3f7883c4	0.9707606
1	0x3f82b9e0	1.0212975
2	0x3f82f0f2	1.0229781

enc_rnn_2.layers.2.strand1_ln1.bias f4 [3]
0	0x3d59ee29	0.053205643
1	0x3d05fa04	0.032709137
2	0x3d459f56	0.048247658

enc_rnn_2.layers.2.strand2_proj.weight f4 [3, 1]
0	0xbf5abaf5	-0.85441524
1	0x3e88dd1d	0.26731196
2	0x3ef2475b	0.47320065

enc_rnn_2.layers.2.strand2_proj.bias f4 [3]
0	0xbc5fca2b	-0.01365904
1	0x3d8fee21	0.07027841
2	0xbd74f8b6	-0.0598075

enc_rnn_2.layers.2.strand2_ln1.weight f4 [3]
0	0x3f690306	0.9102024
1	0x3f896a86	1.0735633
2	0x3f7782c5	0.96683913

enc_rnn_2.layers.2.strand2_ln1.bias f4 [3]
0	0xbdb6eb76	-0.08931629
1	0xbdac81d3	-0.084231995
2	0xbd1a01f2	-0.03759951

enc_rnn_2.layers.2.conv1d.weight f4 [3, 3, 3]
0	0x3e0aedfb	0.13567345
1	0x3e6ca261	0.23108818
2	0x3ea26201	0.31715396
3	0x3eeff31d	0.46865168
4	0xbe48bb14	-0.19602615
5	0x3ee580f7	0.44824955
6	0x3f12f798	0.5740905
7	0xbe4ca8bd	-0.19986244
8	0x3f1565b1	0.58358294
9	0x3ecc20b5	0.39868703
10	0x3f328784	0.6973803
11	0xbee6348f	-0.44961974
12	0xbecde6d4	-0.4021517
13	0xbe598fb0	-0.21246219
14	0x3cecf124	0.028923579
15	0x3efed81a	0.49774247
16	0xbef7a147	-0.48365232
17	0x3eda7212	0.42665154
18	0xbe820577	-0.25394794
19	0x3f076dd5	0.52901965
20	0xbd8edb6b	-0.069754444
21	0xbf4119ec	-0.7543018
22	0xbef98025	-0.4873058
23	0xbf0f578d	-0.55992967
24	0x3edcc4c8	0.43118882
25	0xbf071b4c	-0.52776027
26	0xbddcafdc	-0.1077573

enc_rnn_2.layers.2.conv1d.bias f4 [3]
0	0xbbc5ca56	-0.006036083
1	0x3cd34a7e	0.025792357
2	0xbd564600	-0.05231285

enc_rnn_2.layers.2.conv_ln.weight f4 [3]
0	0x3f71b0b6	0.94410264
1	0x3f816a6b	1.0110601
2	0x3f767dc9	0.9628568

enc_rnn_2.layers.2.conv_ln.bias f4 [3]
0	0xbd406adf	-0.04697692
1	0x3c52dddc	0.012870278
2	0xbd8a6edd	-0.06759427

enc_rnn_2.layers.2.min_gru.linear_z.weight f4 [3, 3]
0	0x3e6082f2	0.21924952
1	0xbf08b585	-0.53401977
2	0x3e91d9b4	0.28486407
3	0xbf673482	-0.90314496
4	0xbf4534a2	-0.77033436
5	0xbf751dfe	-0.9574889
6	0xbea91688	-0.33025002
7	0xbe94d349	-0.29067448
8	0x3dc29eda	0.09502955

enc_rnn_2.layers.2.min_gru.linear_z.bias f4 [3]
0	0x3c155923	0.00911549
1	0x3d8fd071	0.07022179
2	0xbc0337b2	-0.008008884

enc_rnn_2.layers.2.min_gru.linear_h.weight f4 [3, 3]
0	0xbd889eb0	-0.06670892
1	0x3eeb7c91	0.45993474
2	0x3f65bc9b	0.89740914
3	0x3edea9c5	0.434889
4	0xbeab300d	-0.33435097
5	0xbf825993	-1.0183586
6	0x3e8b75ac	0.27238214
7	0xbecb6e4e	-0.39732593
8	0x3f052409	0.5200811

enc_rnn_2.layers.2.min_gru.linear_h.bias f4 [3]
0	0x3cb3ceb5	0.021949152
1	0x3da05028	0.078277886
2	0xbd9412ba	-0.07230134

enc_rnn_2.layers.2.gru_ln.weight f4 [3]
0	0x3f6acc76	0.9171823
1	0x3f8ace6b	1.0844244
2	0x3f757286	0.95877874

enc_rnn_2.layers.2.gru_ln.bias f4 [3]
0	0x3de535ae	0.11191879
1	0x3de4bba3	0.11168601
2	0x3d792d5d	0.060834277

enc_rnn_2.layers.2.down_projection.weight f4 [1, 3]
0	0x3f7addf2	0.9799491
1	0xbf55c794	-0.8350766
2	0xbf1060a5	-0.5639747

enc_rnn_2.final_down_projection.weight f4 [1, 3]
0	0x3ec59b3c	0.38594997
1	0x3e640a60	0.22269583
2	0x3f0aaf14	0.541734
